model_summary,training_time,epochs,input_size,batch_size,network_width,hidden_layers,train_proportion,test_proportion,valid_proportion,device,optimizer,loss_fn,learning_rate,bias,avr_res,MBE,R2,RSS,TSS,adjusted_R2,MSE,RMSE,MAE,MAPE,wMAPE,sMAPE,MSLE,RMSLE,AIC,BIC,ESS,hellinger_dist
"==========================================================================================
Layer (type:depth-idx)                   Output Shape              Param #
==========================================================================================
NeuralNetwork                            [32, 1]                   --
├─Sequential: 1-1                        [32, 1]                   --
│    └─Linear: 2-1                       [32, 512]                 6,656
│    └─LayerNorm: 2-2                    [32, 512]                 1,024
│    └─GELU: 2-3                         [32, 512]                 --
│    └─Linear: 2-4                       [32, 512]                 262,656
│    └─LayerNorm: 2-5                    [32, 512]                 1,024
│    └─GELU: 2-6                         [32, 512]                 --
│    └─Linear: 2-7                       [32, 512]                 262,656
│    └─LayerNorm: 2-8                    [32, 512]                 1,024
│    └─GELU: 2-9                         [32, 512]                 --
│    └─Linear: 2-10                      [32, 1]                   513
==========================================================================================
Total params: 535,553
Trainable params: 535,553
Non-trainable params: 0
Total mult-adds (Units.MEGABYTES): 17.14
==========================================================================================
Input size (MB): 0.00
Forward/backward pass size (MB): 0.79
Params size (MB): 2.14
Estimated Total Size (MB): 2.93
…
